lstm.pth (torch, 133006 bytes, 9 tensors)

lstm.weight_ih_l0 f4 [200, 8]
0	0x3dc0fbf9	0.0942306
1	0xbb92ba35	-0.004477764
2	0x3db08a28	0.08620101
3	0x3dc3603c	0.095398396
4	0xbdbdd8c6	-0.09269862
5	0x3dd5ca0a	0.104389265
6	0x3df1e159	0.1181056
7	0x3c8c5c67	0.017133905
8	0xbcb32a14	-0.02187065
9	0xbc26a155	-0.0101703005
10	0x3c565049	0.013080665
11	0xbd0e5dcc	-0.03475742
12	0xbd78ee94	-0.0607744
13	0x3e28236b	0.16419761
14	0x3d117d74	0.035520032
15	0xbd827f51	-0.0637194
16	0xbb3158ac	-0.002706091
17	0x3af22ffa	0.0018477433
18	0x3d8eeaee	0.06978403
19	0x3b81216f	0.003940753
20	0x3e0cbf1d	0.13744779
21	0xbd175898	-0.036949724
22	0xbdbeecf8	-0.09322542
23	0x3cc7ad00	0.024374485
24	0xbcc9476f	-0.024570195
25	0x3e25db02	0.16196826
26	0x3e17fa66	0.14841613
27	0x3cf249fe	0.029576298
28	0x3d8cefe5	0.06881694
29	0xbdbe54f5	-0.09293548
30	0xbdb57c81	-0.08861638
31	0x3d894aa2	0.06703688
32	0x3db2d1f0	0.08731449
33	0xbdaea488	-0.085274756
34	0x3e05b86e	0.13058636
35	0xbcfbaa05	-0.03072072
36	0xbc5f435d	-0.0136269005
37	0xbd556ac2	-0.052103765
38	0x3babceaf	0.0052431445
39	0x3e02cd72	0.12773684
40	0xbda6af55	-0.08138911
41	0x3c77da31	0.0151277045
42	0x3e10577a	0.1409587
43	0x3c08bac5	0.008345311
44	0xbdacb2b0	-0.084325194
45	0x3b9d1782	0.004794062
46	0x3db93b02	0.09044458
47	0x3e149e31	0.1451347
48	0x3de12fc6	0.1099544
49	0x3e1d8c44	0.15385538
50	0x3e2a7d25	0.16649301
51	0x3dfa2549	0.12214143
52	0xbd85069b	-0.064954005
53	0xbdca7d00	-0.09887123
54	0xbd84b609	-0.06480033
55	0xbdb3d573	-0.087809466
56	0x3be129a9	0.0068714214
57	0x3dbd9545	0.092569865
58	0xbd41a251	-0.047273938
59	0xbd5e9a79	-0.054346535
60	0x3dac86d3	0.08424153
61	0x3bd79e4a	0.006580149
62	0x3d53127c	0.0515313
63	0x3e1aa425	0.15101679
64	0xbd0989ba	-0.033578612
65	0x3bd077cc	0.006361937
66	0x398d9f99	0.00027012525
67	0x3d840914	0.06447044
68	0x3d5cbcbd	0.053890932
69	0xbd4a8f14	-0.049452856
70	0xbd47edc7	-0.048810747
71	0x3d07869e	0.033087365
72	0x3c6c3fe6	0.014419531
73	0xbddda823	-0.10823085
74	0xbddbe718	-0.10737437
75	0xbd6dc73f	-0.058051344
76	0x3d86d110	0.06582844
77	0xbc1cdb4d	-0.00957377
78	0x3dbfa7de	0.0935819
79	0x3cd70736	0.026248556
80	0xbd9925ee	-0.07477938
81	0xbc36cded	-0.011157495
82	0xbde5a162	-0.11212422
83	0xbcade87c	-0.021229021
84	0xbdca1aa0	-0.098683596
85	0x3d06ab18	0.03287801
86	0x3d453110	0.048142493
87	0x3d80e117	0.062929325
88	0x3db1a179	0.086733766
89	0xbdae49f2	-0.08510198
90	0x3c3608c1	0.0111104855
91	0x3e274058	0.16333139
92	0x3dc19086	0.09451394
93	0x3de3d808	0.11125189
94	0x3e1c73f3	0.15278606
95	0x3e27ff3f	0.16405962
96	0x3d2d5802	0.04232026
97	0xbce7f1be	-0.028313514
98	0xbb821215	-0.0039694407
99	0x3d3c106d	0.045914102
100	0xbdc1728d	-0.09445677
101	0x3e0b6f7c	0.13616747
102	0x3e1b8015	0.15185578
103	0x3cc5e15e	0.024155315
104	0xbd8b6f82	-0.06808378
105	0xbd7da653	-0.061926197
106	0x3d6aa153	0.057282757
107	0xbd03bb5b	-0.032161098
108	0xbda7ab57	-0.08186977
109	0x3d42d4fc	0.0475664
110	0xbd90ef30	-0.070768714
111	0xbda3781d	-0.07981894
112	0xbd9f9bc1	-0.077933796
113	0x3ddc4a4b	0.10756358
114	0x3c87c116	0.016571563
115	0x3c8053b9	0.015664922
116	0xbdc618c7	-0.09672695
117	0xbc1b6013	-0.009483355
118	0x3cea8e83	0.028632408
119	0x3de54778	0.11195272
120	0xbd2534d8	-0.0403336
121	0x3d9c7dbc	0.076411694
122	0xbc9b33a4	-0.018945523
123	0x3df4d9f5	0.119556345
124	0x3bc32757	0.0059556174
125	0x3e072a80	0.13199806
126	0x3d4718ac	0.048607513
127	0xbccfe078	-0.02537559
128	0x3d9bc9dc	0.07606861
129	0xbca44330	-0.020051569
130	0xbdbd64f8	-0.09247774
131	0xbd751183	-0.059831154
132	0x3995663e	0.0002849567
133	0x3e24f7bd	0.1611013
134	0xbdc49a1c	-0.095997065
135	0x3e057762	0.13033822
136	0xbdaa5260	-0.08316493
137	0x3d61b541	0.055104498
138	0x3d315230	0.04329127
139	0x3d466ba7	0.04844251
140	0xbd8a862d	-0.06763873
141	0x3db7996f	0.08964812
142	0x3ce18382	0.027528528
143	0x3d3145f0	0.04327959
144	0x3d6aeb37	0.057353225
145	0xbdc26d7c	-0.09493539
146	0xbbbe5cc4	-0.0058093984
147	0x3e3af836	0.18258747
148	0x3e258377	0.16163431
149	0x3d35bd55	0.044370014
150	0x3ccd6765	0.025073716
151	0xbd64a372	-0.055819936
152	0x3e333fb8	0.17504776
153	0x3e31d663	0.17366938
154	0xbb5a121b	-0.0033274952
155	0xbcc4d7c3	-0.024028664
156	0x3de363e3	0.11103036
157	0xbdcb3f20	-0.099241495
158	0x3d8fb168	0.070162594
159	0xbd47bde1	-0.048765067
160	0x3d981a11	0.07426847
161	0xbda32150	-0.07965338
162	0x3e07f708	0.13277829
163	0x3cfe5b06	0.031049263
164	0xbc872a81	-0.01649976
165	0x3e0b82f6	0.13624176
166	0xbcb05b75	-0.021527985
167	0xbcc4e69d	-0.024035746
168	0x3dfb5385	0.122717895
169	0xbcfc953e	-0.030832883
170	0xbdd88b05	-0.10573391
171	0x3e21617a	0.1575984
172	0x3e059d5c	0.13048309
173	0x3dcbe071	0.09954918
174	0x3bd9af32	0.0066431994
175	0xbc025773	-0.00795542
176	0x3d4e792a	0.05040852
177	0x3e1e3eaa	0.15453592
178	0xbd3a7b00	-0.04552746
179	0x3d8d1a7a	0.06889816
180	0x3d535cfe	0.051602356
181	0x3cfb1d63	0.030653661
182	0x3de487ff	0.11158752
183	0x3cc641fc	0.024201386
184	0x3cf9e491	0.030504497
185	0x3e1ba255	0.15198644
186	0x3d52667d	0.05136727
187	0x3e356800	0.17715454
188	0xbdcce303	-0.100042365
189	0x3d86eec9	0.065885134
190	0x3a213672	0.00061497756
191	0x3dc7accb	0.097497545
192	0x3c9ad91e	0.018902358
193	0x3e042bf9	0.12907399
194	0xbd989a3a	-0.074512914
195	0x3dabaf43	0.08383038
196	0xbdac2d01	-0.08407021
197	0x3c7a1b4c	0.015265297
198	0x3e17979e	0.14803931
199	0x3e0abf96	0.13549647
200	0xbd94933d	-0.07254646
201	0x3db79d39	0.08965535
202	0x3da6fe7e	0.08154009
203	0x3d0958d4	0.03353198
204	0x3e056a0c	0.13028735
205	0x3e2b746c	0.1674363
206	0xbdc75356	-0.09732692
207	0x3dbb8d20	0.09157777
208	0xbdc3b134	-0.09555283
209	0xbd1eb893	-0.038750242
210	0xbd8cc3e8	-0.06873304
211	0x3e100137	0.14062963
212	0xbb663244	-0.0035125175
213	0xbdf18ca7	-0.117944054
214	0xbd923e7e	-0.07140826
215	0x3e1847f7	0.14871202
216	0x3d52d09a	0.05146847
217	0x3ce303d6	0.02771179
218	0xbcd986f2	-0.026553605
219	0x3ad092eb	0.0015912926
220	0x3da7927b	0.08182236
221	0xbd05cfd3	-0.0326689
222	0xb9e01b5a	-0.00042744988
223	0x3e124710	0.1428492
224	0x3d81814d	0.0632349
225	0x3d8ed730	0.069746375
226	0x3e20226e	0.15638134
227	0x3d8184ca	0.06324156
228	0x3e193927	0.14963208
229	0xbdbd659c	-0.09247896
230	0x3bb6e1ed	0.0055811317
231	0x3ca0f070	0.0196459
232	0x3dad8d22	0.084741846
233	0x3d7456aa	0.05965296
234	0x3dfd68ef	0.1237353
235	0x3cab306a	0.020897109
236	0x3c9d1019	0.019172715
237	0x3ddccbaa	0.10781033
238	0xbdb82cef	-0.089929454
239	0xbdcf0309	-0.10108001
240	0x3d768fce	0.060195737
241	0xbd7d0867	-0.06177559
242	0xbd227077	-0.039658036
243	0x3b934238	0.004493978
244	0x3da77344	0.08176282
245	0xbcbde547	-0.023180617
246	0xbaa90790	-0.001289593
247	0xbd05e21d	-0.03268634
248	0x3b79cc8d	0.0038116307
249	0x3bf28d32	0.0074020857
250	0xbd933de3	-0.07189538
251	0x3e25bb16	0.16184649
252	0xbda1aecf	-0.0789467
253	0xbda76099	-0.081727214
254	0x3e1d8f4f	0.15386699
255	0xbd16bd88	-0.036801845

lstm.weight_hh_l0 f4 [200, 50]
0	0x3d5d679b	0.054053884
1	0x3d4e3416	0.05034264
2	0xbde073fc	-0.10959622
3	0x3e12dc3a	0.14341822
4	0xbd93858f	-0.07203209
5	0xbd3afce4	-0.04565133
6	0x3cb3a1e5	0.021927783
7	0xbdeffaf1	-0.11717785
8	0x3dce5e73	0.100766085
9	0xbb2a9004	-0.0026025781
10	0xbc0a0d6f	-0.008426054
11	0xbd3a6259	-0.045503948
12	0xbcf9da3b	-0.030499568
13	0xbda6e195	-0.08148495
14	0x3dc0d67c	0.0941591
15	0x3d0422b0	0.032259643
16	0x3dc3eb10	0.09566319
17	0x3b55ee86	0.0032643392
18	0xbd8bfa2a	-0.068348244
19	0xbdaddc90	-0.084893346
20	0xbdd02ac9	-0.101644106
21	0x3e02a2af	0.12757371
22	0x3e147f81	0.14501764
23	0x3e35ae4e	0.17742273
24	0x3c8bc673	0.017062401
25	0x3e25bac9	0.16184534
26	0x3d237aa8	0.039911896
27	0x3de1dafd	0.11028097
28	0xbe34a024	-0.17639214
29	0x3d852682	0.065014854
30	0xbc6ce603	-0.014459136
31	0x3d6a63c3	0.057224046
32	0x3ca719e9	0.020398097
33	0x3d94b11a	0.07260342
34	0xbdee0bd9	-0.116233535
35	0xbc997ca6	-0.018736195
36	0xbca874a4	-0.020563431
37	0xbd38a16f	-0.04507583
38	0x3d5b8436	0.053592883
39	0x3db1b2e1	0.086766966
40	0x3d88274c	0.0664812
41	0x3e156db9	0.14592637
42	0x3cc965d0	0.02458468
43	0xbd78140c	-0.060565993
44	0x3dfe85ca	0.12427862
45	0xbde0e2f5	-0.109807886
46	0x3c20e629	0.009820499
47	0xbdc78308	-0.09741789
48	0x3cfcbe88	0.030852571
49	0x3d717ec6	0.05895879
50	0x3db65b56	0.0890414
51	0x3c80fbba	0.015745033
52	0x3c6e9631	0.014562176
53	0xbd6c2ef4	-0.057661965
54	0xbcfb9724	-0.030711718
55	0xbde7c364	-0.11316565
56	0x3d907b2c	0.07054743
57	0x3c93e46e	0.01805326
58	0x3d9e88bd	0.077409245
59	0xbd7a63fa	-0.0611305
60	0xbdb4d10b	-0.08828934
61	0xbe26beb4	-0.16283685
62	0xbd9adae2	-0.0756128
63	0xbdb443af	-0.08801972
64	0xbcf8438e	-0.03030565
65	0x3e06f232	0.13178328
66	0x3dcf64d2	0.10126652
67	0xbdbdc8f1	-0.09266842
68	0xbd8d9b2e	-0.06914364
69	0xbdc5b569	-0.09653742
70	0x3d885325	0.066564836
71	0x3da9ec38	0.08297008
72	0x3e13ca87	0.14432727
73	0xbd77280d	-0.06034093
74	0xbd270543	-0.040776502
75	0x3e271ec8	0.16320336
76	0xbbd3a9de	-0.0064594587
77	0xba3e6a82	-0.00072637957
78	0x3d0e5ec8	0.03475836
79	0x3d471358	0.048602432
80	0xbde1d515	-0.1102697
81	0xbc0bd8d3	-0.008535582
82	0x3e2954e3	0.16536288
83	0x3cb456e6	0.022014093
84	0xbe080cb0	-0.1328609
85	0x3e03ef77	0.12884317
86	0x3d83b340	0.064306736
87	0x3df27aba	0.118398145
88	0xbe39befd	-0.18139262
89	0x3d001dfc	0.031278595
90	0xbdbbb9e1	-0.09166313
91	0xbc8eaf97	-0.017417712
92	0xbc836ad5	-0.016042152
93	0xbd7c0877	-0.06153151
94	0x3d84fb7f	0.064932816
95	0xbe2f3b6b	-0.1711251
96	0xbdfca5ff	-0.12336349
97	0x3e20bebd	0.15697761
98	0xbdc60368	-0.096686184
99	0xbb0ade11	-0.002118949
100	0x3e242962	0.16031411
101	0x3d205c3e	0.03915047
102	0x3cd61eef	0.026137797
103	0xbdbd9a73	-0.092579745
104	0x3ca0e345	0.01963962
105	0xbd2df7db	-0.0424727
106	0xbd53623b	-0.05160735
107	0xbd92c3e8	-0.071662724
108	0x3d3b61b4	0.045747474
109	0x3da5dcba	0.08098741
110	0xbd938131	-0.07202376
111	0xbd771f13	-0.06033237
112	0xbcabed6d	-0.020987237
113	0xbe0b00b6	-0.1357449
114	0x3e1f6162	0.15564492
115	0x3d908ebf	0.07058477
116	0xbc6ad7f3	-0.014333713
117	0x3dc4c4bd	0.09607837
118	0xbe1ec8a1	-0.15506221
119	0xbe24ac79	-0.16081418
120	0x3e20e694	0.15712959
121	0xbdfc1955	-0.12309519
122	0x3d931ce9	0.071832485
123	0x3e15a9a6	0.14615497
124	0x3d3c52eb	0.045977514
125	0xbcd25e6f	-0.025679795
126	0x3da335c0	0.079692364
127	0xbdc6231d	-0.09674666
128	0x3de31986	0.110888526
129	0xbd82a629	-0.06379349
130	0xbd020c3d	-0.031749953
131	0xbd9803ce	-0.07422601
132	0x3de6ebe7	0.112754636
133	0x3d9554e3	0.072915815
134	0xbc367ac0	-0.011137664
135	0xbdc70f26	-0.09719686
136	0xbdeff875	-0.11717311
137	0x3e2096e1	0.15682556
138	0xbe1935e0	-0.14961958
139	0x3e2bc000	0.16772461
140	0x3e32acfa	0.17448798
141	0xbdc89fe2	-0.0979612
142	0xbe0b0894	-0.13577491
143	0x3dbead27	0.0931037
144	0x3d14c930	0.03632468
145	0x3d7f17ae	0.062278442
146	0x3d94ad6c	0.0725964
147	0xbc119f0a	-0.0088880155
148	0x3cd662eb	0.026170215
149	0x3d91eea2	0.07125594
150	0xbd984268	-0.07434541
151	0x3cd37fb8	0.025817737
152	0xbd764f48	-0.060134202
153	0x3e138dfe	0.14409634
154	0xb992c531	-0.0002799421
155	0x3d838231	0.064213164
156	0xbd8c7a48	-0.06859261
157	0xbd8dd7e9	-0.06925947
158	0xbd056de6	-0.03257551
159	0x3d0bdeec	0.03414814
160	0xbc4422a4	-0.01197115
161	0xbdc6d564	-0.0970867
162	0x3dbc690b	0.09199723
163	0xbdf50e3f	-0.11965608
164	0xbd2330cf	-0.03984147
165	0x3e114266	0.14185485
166	0xbd9d1ee2	-0.07671906
167	0xbda935de	-0.082622275
168	0xbd9f3fb3	-0.077758215
169	0xbe00d888	-0.125826
170	0xbdc8da91	-0.09807313
171	0xbc0a9a40	-0.008459628
172	0xbd1e8eb2	-0.038710304
173	0x3d2070d9	0.03917012
174	0xbcf6fa0b	-0.030148527
175	0xbdbde3da	-0.09271975
176	0xbce7a127	-0.028275086
177	0x3e0744a0	0.13209772
178	0xbcc1ff81	-0.023681404
179	0xbd60b40b	-0.054859202
180	0xbb780a59	-0.0037847965
181	0xbdd52a64	-0.10408476
182	0xbd8eefde	-0.06979345
183	0xbcd91c7b	-0.026502838
184	0x3d86d79f	0.06584095
185	0x3da70bd7	0.08156555
186	0xbc55c1eb	-0.013046722
187	0x3e2e775f	0.17037724
188	0x3d401acf	0.046900567
189	0xbdb90f38	-0.09036106
190	0x3d3e4baf	0.046458896
191	0xbd9d25c6	-0.0767322
192	0xbe100899	-0.1406578
193	0xbe2c4d12	-0.16826275
194	0xbc7da0c8	-0.015480228
195	0xbe095eb6	-0.13415036
196	0x3d8217bf	0.063521855
197	0x3c2324f7	0.009957544
198	0x3e0ac22e	0.13550636
199	0xbdbf9f2c	-0.093565315
200	0xbd9bd279	-0.07608504
201	0x3bca8b60	0.0061811656
202	0xbdef84e2	-0.11695267
203	0xbd4780a0	-0.04870665
204	0x3c6ebc57	0.014571271
205	0x3cef384d	0.029201651
206	0x3e0c1487	0.13679706
207	0xbd809c22	-0.0627978
208	0xbe4459b5	-0.19174846
209	0xbe27e0cf	-0.16394351
210	0xbe4d15a4	-0.20027786
211	0xbd0b6341	-0.034030203
212	0xbe054354	-0.13013965
213	0xbe073d42	-0.13206962
214	0x3cfb0445	0.030641684
215	0xbda560ec	-0.08075127
216	0xbdf7c031	-0.120972045
217	0x3e001bb9	0.12510575
218	0x3c9c4a11	0.019078286
219	0x3d8c9a16	0.06865327
220	0x3e0da848	0.13833725
221	0x3d29f6ba	0.041495062
222	0x3d807be4	0.0627363
223	0xbd62b051	-0.05534393
224	0xbde8e215	-0.11371247
225	0xbd138182	-0.03601218
226	0xbdb25b4b	-0.08708819
227	0xbdc94732	-0.098280326
228	0xbcf6e9e1	-0.030140819
229	0xbdf77136	-0.1208214
230	0xbddea3cc	-0.108710855
231	0x3c9a429d	0.018830592
232	0xbcae9333	-0.021310424
233	0xbd4b1de8	-0.049589068
234	0x3d7eb0ee	0.062180452
235	0x3db4765e	0.08811639
236	0xbcce205b	-0.025161913
237	0x3d1c5cec	0.038174555
238	0x3d6c8aef	0.057749685
239	0xbcd76af2	-0.026296113
240	0x3cf7a787	0.03023125
241	0x3cdf250a	0.027239341
242	0xbb8497ac	-0.004046401
243	0xbda66784	-0.08125213
244	0x3d8aee59	0.067837425
245	0xbd856a1f	-0.065143816
246	0xbda184e0	-0.07886672
247	0x3e18f5e4	0.1493755
248	0xbb3ca029	-0.0028781986
249	0x3e1beca6	0.15226993
250	0xbd26cebe	-0.04072451
251	0xbdf2268a	-0.11823757
252	0xbc4360e1	-0.011924953
253	0xbca3e146	-0.02000488
254	0x3e0169d8	0.12638032
255	0x3db04f97	0.086089306

lstm.bias_ih_l0 f4 [200]
0	0xbc680f46	-0.014163798
1	0xbd567b4a	-0.05236367
2	0x3e099a2e	0.13437721
3	0x3ca814eb	0.020517787
4	0x3be01c26	0.006839293
5	0xbd25d5c9	-0.040487085
6	0x3dafc056	0.08581607
7	0x3de08286	0.10962395
8	0xbd906d31	-0.070520766
9	0x3db0f61f	0.08640694
10	0x3d8e2f3f	0.06942605
11	0xbc9bce96	-0.019019406
12	0x3d8a7820	0.06761193
13	0xbd8b28a7	-0.06794863
14	0x3dd60560	0.10450244
15	0xbd8801e5	-0.06640986
16	0x3e10e865	0.14151151
17	0x3e081acd	0.13291474
18	0xbbc9e6ba	-0.006161538
19	0xbd8972d7	-0.06711357
20	0x3ce123d7	0.02748291
21	0xbdae7d89	-0.08520038
22	0xbd66c645	-0.05634143
23	0x3cb9c4bf	0.022676824
24	0xbd976431	-0.07392157
25	0x3e1843db	0.14869635
26	0x3e254387	0.16139041
27	0x3ccdd302	0.02512503
28	0xbddc68f6	-0.10762207
29	0x3db746ac	0.089490265
30	0xbc19bc13	-0.009383219
31	0xbdadf6f6	-0.0849437
32	0x3cbf793b	0.023373237
33	0x3b0ca242	0.0021459018
34	0x3be7674f	0.007061876
35	0xbcead669	-0.028666692
36	0xbdf82b2c	-0.121176094
37	0x3d0f5f69	0.0350031
38	0xbd25c3ee	-0.040470056
39	0x3e238010	0.1596682
40	0x3c76e92d	0.015070242
41	0xbd04d191	-0.03242642
42	0x3d8d2ba2	0.06893088
43	0x3dadc148	0.08484131
44	0xbd6f714c	-0.058457658
45	0xbdaf4220	-0.08557534
46	0x3d85feda	0.0654275
47	0xbd73fba6	-0.059566163
48	0x3d83df3c	0.06439063
49	0xbd934ea0	-0.07192731
50	0x3c074e0f	0.008258357
51	0xbcef6ce1	-0.029226722
52	0xbc58fa34	-0.013243247
53	0x3e162748	0.14663422
54	0x3d85ee27	0.065395646
55	0x3d3626cc	0.044470593
56	0xbcadf7f9	-0.021236407
57	0x3dd3b97c	0.10338113
58	0xbd7fc93b	-0.062447768
59	0xbc808999	-0.015690612
60	0xbd5648d2	-0.05231554
61	0xbd6abd6a	-0.057309546
62	0x3dd4d371	0.10391892
63	0x3ddcef87	0.10787874
64	0xbd8ebe5e	-0.069699034
65	0x3e1ac966	0.1511589
66	0xbcad6927	-0.021168305
67	0x3e30eaaa	0.17277017
68	0xbb74e2de	-0.0037366669
69	0xbd399092	-0.04530389
70	0xbccaeabf	-0.024770139
71	0xbcc09f40	-0.023513436
72	0x3e1a917f	0.15094565
73	0x3e2c46e5	0.16823919
74	0x3cb0c6af	0.021579115
75	0x3d927bef	0.07152545
76	0xbdb26798	-0.08711165
77	0x3e19f470	0.15034652
78	0xbaa788cc	-0.0012781858
79	0x3d6f2304	0.058383003
80	0x3cfe303f	0.031028865
81	0x3dcc2061	0.09967113
82	0xbdcb61c1	-0.099307545
83	0xbdd9c36e	-0.106329784
84	0xbcea5b24	-0.028607912
85	0xbcbad890	-0.022808343
86	0x3d7dfe48	0.06201008
87	0x3e348b48	0.17631257
88	0x3ca71816	0.020397227
89	0x3dfb164e	0.12260114
90	0xbc140344	-0.009033982
91	0x3e3d25fb	0.1847152
92	0x3dafb9b4	0.08580342
93	0xbd829927	-0.06376868
94	0xbd7a8be7	-0.061168578
95	0x3dbfd955	0.09367625
96	0xbd945a57	-0.072437935
97	0x3dda60a9	0.10662968
98	0x3d351703	0.0442114
99	0x3d9fcaa2	0.07802321
100	0x3dfb4302	0.1226864
101	0xbe19763f	-0.14986514
102	0xbe0f7b17	-0.14011799
103	0xbd8dd2c9	-0.0692497
104	0xbdfcc55e	-0.12342332
105	0xbe362f19	-0.17791404
106	0xbd68b9d5	-0.05681785
107	0xbdd7e0e2	-0.1054094
108	0xbdc7e47c	-0.09760377
109	0xbdca74d7	-0.09885567
110	0xbd8b3518	-0.06797236
111	0xbe2be14d	-0.16785164
112	0xbbbfa15f	-0.0058480944
113	0xbd49afb0	-0.049239814
114	0x3defcc78	0.11708921
115	0x3e02d943	0.12778191
116	0x3e1cd7a6	0.15316638
117	0xbdabf02f	-0.08395421
118	0x3d008aba	0.0313823
119	0xbe0cabef	-0.13737462
120	0x3b8d79e8	0.004317511
121	0xbdbe700c	-0.09298715
122	0x3d8ddd11	0.06926931
123	0x3e1b6940	0.15176868
124	0x3da9ed4a	0.082972124
125	0x3aefad1f	0.0018285847
126	0xbd9832a2	-0.074315324
127	0x3ddda5e3	0.10822656
128	0xbdae9cf5	-0.08526031
129	0xbde9fb16	-0.11424844
130	0x3dbedf31	0.09319914
131	0xbdf39c77	-0.11895078
132	0x3e0aedfa	0.13567343
133	0xbcea4906	-0.028599273
134	0xbcb1b36b	-0.021691998
135	0x3e116f16	0.14202532
136	0xbe0d27c2	-0.13784698
137	0x3d5cb544	0.053883806
138	0x3d7537c9	0.059867654
139	0x3d66fde4	0.056394473
140	0x3dee3d81	0.11632825
141	0xbda97dae	-0.082759246
142	0xbdc1f2b8	-0.09470123
143	0x3d3ab28e	0.04558044
144	0x3de155a5	0.110026635
145	0xbe2c9510	-0.16853738
146	0xbe31e562	-0.17372659
147	0x3e1a9624	0.15096337
148	0x3e2840f2	0.16431025
149	0x3d26d541	0.04073072
150	0x3b33eb1a	0.0027453364
151	0x3e00bdc6	0.12572393
152	0x3df04375	0.117316164
153	0x3d9840e0	0.07434249
154	0xbda876c5	-0.082257785
155	0x3c8c3fad	0.017120207
156	0x3dd82a7e	0.1055498
157	0xbb05ffd6	-0.002044668
158	0x3c175a66	0.009237861
159	0xbca98829	-0.020694809
160	0x3dff7be9	0.12474806
161	0xba7499e1	-0.0009330791
162	0x3c729721	0.01480654
163	0x3d82e5c5	0.06391481
164	0x3c3b0207	0.011414058
165	0x3e02ba99	0.12766494
166	0xbc0d0f38	-0.008609585
167	0x3dbd92f7	0.09256547
168	0x3e3bf94b	0.18356816
169	0x3dec9f31	0.11553801
170	0x3d488c12	0.048961706
171	0x3d181eb0	0.03713864
172	0x3d45194f	0.04811984
173	0x3e3d9f5b	0.1851782
174	0x3ba210d4	0.0049458537
175	0x3cd57d10	0.026060611
176	0x3df3f743	0.11912396
177	0xbce53040	-0.027977109
178	0xbd36d6d1	-0.04463846
179	0x3e0f4eaf	0.13994859
180	0x3b4c905c	0.0031213975
181	0x3e2a6bd1	0.16642691
182	0x3bf7794b	0.007552301
183	0x3e256d16	0.16154894
184	0xbba5256d	-0.005039862
185	0xbc33d841	-0.010976852
186	0x3dd533e0	0.10410285
187	0x3d99852c	0.07496104
188	0x3ded3d92	0.11584009
189	0x3de98c03	0.11403658
190	0x3e370d0d	0.17876072
191	0xba4f7c8e	-0.00079149834
192	0x3d42eb92	0.04758794
193	0x3cc59d89	0.02412297
194	0xbd45c710	-0.048285544
195	0xbdba027f	-0.09082507
196	0x3cdb9964	0.02680654
197	0xbdbba49c	-0.09162256
198	0xbb2e30f8	-0.002657948
199	0xbc45eb4f	-0.012080028

lstm.bias_hh_l0 f4 [200]
0	0x3deef0d6	0.116670296
1	0x3d30b360	0.043139815
2	0xbc369e10	-0.0111460835
3	0xbd944601	-0.07239915
4	0x3cbe8e35	0.023261169
5	0x3e07ae3c	0.13250059
6	0x3de74576	0.112925455
7	0x3ccd4349	0.025056498
8	0x3da7f9ae	0.082019195
9	0x3cb05000	0.021522522
10	0xbd4ca264	-0.049959555
11	0x3d3049e4	0.043039218
12	0xbdb7b469	-0.089699574
13	0x3da52097	0.08062857
14	0x3da77a6a	0.081776455
15	0x3e10621a	0.14099923
16	0xbda7a323	-0.08185413
17	0x3e0d11be	0.137763
18	0xbdc25895	-0.09489552
19	0x3d453846	0.04814937
20	0xbd10821f	-0.035280343
21	0x3c26a5cf	0.010171368
22	0x3bc017f4	0.0058622304
23	0xbcbfe856	-0.023426216
24	0x3da143c5	0.07874254
25	0xbd4db2a8	-0.050219208
26	0x3d17dd04	0.03707601
27	0x3c0d83fc	0.008637425
28	0x3d39bb96	0.04534491
29	0x3cc2477e	0.02371573
30	0xbe08b815	-0.13351472
31	0x3e1795ae	0.14803192
32	0x3e11d7f2	0.14242533
33	0xbdc63b82	-0.09679319
34	0x3e1d4e38	0.1536187
35	0xbd28edea	-0.041242518
36	0x3cf91b9d	0.030408675
37	0x3e257219	0.16156806
38	0x3e378584	0.17922026
39	0x3e19086c	0.14944619
40	0x3deb0c82	0.11476995
41	0xbd7cfce2	-0.061764605
42	0x3d9e1d44	0.07720426
43	0xbc817ac3	-0.015805608
44	0x3d86d321	0.065832384
45	0xbcdeb130	-0.027184099
46	0x3c20d92f	0.009817406
47	0x3add171e	0.0016867851
48	0x3dcf1db6	0.10113089
49	0x3d8818c3	0.06645348
50	0xbb915dca	-0.0044362294
51	0xbdba390c	-0.09092912
52	0x3dbd77d4	0.09251371
53	0x3c602d1b	0.013682629
54	0xbdaa42c1	-0.083135135
55	0xbdafe004	-0.085876495
56	0x3cb86c7b	0.022512665
57	0xbc40e3a4	-0.011773024
58	0x3e2978c5	0.16549976
59	0x3dab5d1b	0.08367368
60	0x3dc3b44b	0.095558725
61	0xbda04f83	-0.07827666
62	0x3e2b64bb	0.16737644
63	0x3b0c5c5a	0.002141735
64	0xbdc63fe8	-0.09680158
65	0xbd6fa341	-0.0585053
66	0xbd9e59e6	-0.077319905
67	0x3c9a819c	0.01886063
68	0xbdab1ee2	-0.083555
69	0xbd9a55f0	-0.075359225
70	0x3deedb77	0.11662953
71	0x3dd30d10	0.10305226
72	0x3e05a4a5	0.13051088
73	0xbd4faa8b	-0.05069975
74	0xbc6f06ba	-0.014589006
75	0x3cfc97e7	0.030834151
76	0xbc339f63	-0.010963294
77	0xbd86051c	-0.06543943
78	0xbd89872f	-0.06715237
79	0x3bd31ebc	0.006442873
80	0xbdc1e7bd	-0.09468029
81	0x3de052f1	0.1095332
82	0x3e0c411e	0.13696715
83	0x3dc1221f	0.09430336
84	0xbd9e91ef	-0.077426784
85	0x3db824e4	0.08991411
86	0x3dce2165	0.10064963
87	0x3d0f0fb8	0.0349271
88	0xbdb5a828	-0.08869964
89	0xbcb863ad	-0.022508467
90	0x3d05fbfd	0.032711018
91	0x3cfc715a	0.030815769
92	0x3d31ed63	0.04343928
93	0x3dafc49b	0.085824214
94	0x3d2638a7	0.04058137
95	0x3c6ab638	0.014325671
96	0x3daf540d	0.08560953
97	0xbd9aa16d	-0.07550321
98	0x3e15a783	0.14614682
99	0xbdb0f782	-0.08640958
100	0x3d6757d7	0.056480255
101	0xbe0f9aa5	-0.14023836
102	0x3c62e81c	0.0138492845
103	0x3e16dfc0	0.14733791
104	0x3d83b4d0	0.064309716
105	0xbcd224bd	-0.025652284
106	0xbcf9ef67	-0.030509664
107	0xbd129741	-0.03578878
108	0x3b05a3c9	0.0020391813
109	0x3d27fc62	0.041012175
110	0xbbd269b9	-0.0064212945
111	0x3d69c190	0.05706936
112	0xbcd98086	-0.026550543
113	0xbdda8eb8	-0.10671753
114	0xbdbfcd84	-0.09365371
115	0xbb66ef99	-0.0035238026
116	0x3e0ff1ae	0.14057037
117	0xbdbca419	-0.09210987
118	0x3d7c3c9d	0.061581243
119	0x3d78a361	0.060702685
120	0x3d4a8c67	0.049450304
121	0xbca809ce	-0.020512488
122	0x3de969a8	0.113971055
123	0xbdb55a4c	-0.088551134
124	0xbdfb96fa	-0.12284656
125	0x3d8b859b	0.068125926
126	0x3dced92c	0.10100016
127	0x3c4b4f86	0.012409097
128	0x3db378f5	0.08763305
129	0x3d64db6d	0.055873323
130	0xbd28f8d1	-0.041252915
131	0xbd5ca3ad	-0.05386703
132	0x3e05a6be	0.13051888
133	0x3d8a16d4	0.06742635
134	0x3d173817	0.036918726
135	0xbcd14b55	-0.025548616
136	0x3d10c6c9	0.035345826
137	0x3dd3bbf6	0.10338585
138	0x3d05059f	0.032476064
139	0x3d42c234	0.047548488
140	0x3dcf7f88	0.101317465
141	0x3dd4ca14	0.10390106
142	0xbcec6c2d	-0.028860176
143	0xbe29bae8	-0.16575205
144	0xbc6c1ad5	-0.014410694
145	0xbe0032d2	-0.12519386
146	0xbdea048c	-0.114266485
147	0x3e2b42e0	0.1672473
148	0xbc9e7c2d	-0.019346321
149	0x3dca9138	0.098909795
150	0xbd9d1cc7	-0.076715045
151	0xbd778e8d	-0.06043868
152	0x3da61e09	0.081111975
153	0x3ca5ffa4	0.0202635
154	0xbd2d1ffb	-0.042266827
155	0xbd830ff3	-0.063995264
156	0x3aa23296	0.0012374695
157	0xbcf3a37d	-0.029741043
158	0x3dff70f7	0.12472718
159	0x3d3aeae4	0.045634165
160	0x3dbdddd8	0.09270829
161	0x3d8a72a0	0.06760144
162	0x3e00f69c	0.12594074
163	0x3e089214	0.13336974
164	0x3e34a297	0.17640148
165	0x3da06b35	0.07832948
166	0xbd9a2bb9	-0.07527871
167	0xbd9bfd9d	-0.07616732
168	0x3ddfd0e4	0.109285146
169	0x3e33bac5	0.17551716
170	0xbc9863e3	-0.018602317
171	0xbd8bb9aa	-0.06822522
172	0x3e15acd1	0.14616705
173	0xbc450ad6	-0.012026509
174	0xbb3d5e34	-0.002889526
175	0xbc999c76	-0.018751364
176	0x3e321bf4	0.17393476
177	0xbd314803	-0.043281566
178	0xbd324f6c	-0.043532774
179	0x3d49b46b	0.049244326
180	0xbd730a8e	-0.059336238
181	0x3d08c480	0.033390522
182	0xbd909699	-0.07059974
183	0xbc4b89c5	-0.012422984
184	0xbd34c007	-0.044128444
185	0xbd56a6b0	-0.05240506
186	0x3daafe03	0.0834923
187	0xbb8e36a6	-0.0043400107
188	0xbdaa0792	-0.08302225
189	0x3e211bf1	0.15733315
190	0x3deeedd8	0.11666459
191	0x3d1e4fd0	0.038650334
192	0xbccef1d3	-0.025261795
193	0x3d6017e7	0.054710295
194	0x3da41c89	0.08013255
195	0x3e424d7e	0.18974873
196	0xbd9ab505	-0.07554058
197	0xbc9487b8	-0.018131122
198	0xbaf14367	-0.0018406928
199	0xbda3f80f	-0.08006298

lstm.weight_ih_l1 f4 [200, 50]
0	0x3cf747dc	0.030185632
1	0xbd8e06dc	-0.06934902
2	0xba247e2d	-0.0006274905
3	0x3d159503	0.03651906
4	0xbd02f76a	-0.031974234
5	0x3d55eee9	0.052229796
6	0xbd562a8c	-0.05228667
7	0x3d81f190	0.063449025
8	0x3e130b8c	0.14359874
9	0x3cd1f7ba	0.02563082
10	0xbd1bb384	-0.038012996
11	0x3c65ff6f	0.014037951
12	0x3b8e143e	0.004335909
13	0xb95a6a1b	-0.00020829627
14	0xbded6dc0	-0.11593199
15	0x3cf0f122	0.029411856
16	0x3e313446	0.17305097
17	0x3d16e371	0.036838
18	0x3dbc3f08	0.0919171
19	0xbd62aed8	-0.055342525
20	0x3e159d8c	0.1461088
21	0xbd0424d3	-0.03226168
22	0x3e0ecf5f	0.13946293
23	0x3e0edaae	0.13950607
24	0xbe15a61c	-0.14614147
25	0x3c76fd92	0.015075104
26	0x3c6e9c6c	0.014563661
27	0x3da136b7	0.07871764
28	0xbe241551	-0.16023757
29	0xbe1696a5	-0.14705904
30	0xbd4e5ed0	-0.05038339
31	0xbe2358b8	-0.15951812
32	0x3db34e65	0.08755187
33	0x3dd8d501	0.10587502
34	0x3df2b92d	0.11851726
35	0xbd2e89ae	-0.04261177
36	0x3e023025	0.12713678
37	0xba6d89d4	-0.00090613705
38	0x3af73116	0.0018859233
39	0x3dab7948	0.08372742
40	0x3df65321	0.12027574
41	0xbd9e0559	-0.07715864
42	0xbe130768	-0.14358294
43	0xbd9c7e8d	-0.07641325
44	0x3e2ae8c8	0.16690361
45	0x3db70dda	0.08938189
46	0xbb87df63	-0.004146503
47	0x3d2382cb	0.039919656
48	0x3da63ca8	0.08117038
49	0x3e2ade2b	0.16686313
50	0x3dfc07d6	0.12306182
51	0x3c8a5756	0.016887348
52	0xbd211ee0	-0.039336085
53	0x3db2b218	0.08725375
54	0x3e074877	0.13211237
55	0x3d00c750	0.03144008
56	0x3e3d3c7e	0.18480107
57	0xbe168aa7	-0.14701329
58	0x3d80afc3	0.06283524
59	0x3d1020cc	0.035187528
60	0xbddda27b	-0.10822006
61	0xbde9eec5	-0.11422495
62	0xbd925215	-0.07144562
63	0x3def3e27	0.116817765
64	0x3dde9b10	0.108694196
65	0x3dfe17c4	0.12406877
66	0x3d6d89ff	0.05799293
67	0xbdff64ec	-0.12470421
68	0xbd59a30c	-0.05313401
69	0x3d62f700	0.05541134
70	0x3db9800c	0.09057626
71	0x3e2b2d25	0.1671644
72	0xba9c5b72	-0.0011929108
73	0x3da1c93a	0.07899709
74	0xbdb201b1	-0.08691729
75	0xbd18f010	-0.037338316
76	0xbba7c9b1	-0.005120479
77	0x3e099656	0.13436255
78	0x3d86fe3e	0.065914616
79	0x3d0bf690	0.034170687
80	0x3deb80e4	0.11499193
81	0x3da541b8	0.080691755
82	0xbdcbe269	-0.09955294
83	0xbd11cf99	-0.03559837
84	0x3c28a646	0.010293549
85	0xbcd2e035	-0.025741676
86	0xbd6d4491	-0.05792672
87	0xbdddcda1	-0.10830236
88	0xbd7f14f2	-0.062275834
89	0x3a3ed5ac	0.00072797644
90	0xbd8f0398	-0.06983107
91	0xbdbaa312	-0.091131344
92	0xbd2cf16a	-0.042222418
93	0x3deade39	0.11468167
94	0xbdb14f7c	-0.086577386
95	0x3d66d9f6	0.056360207
96	0x3d200ec7	0.039076593
97	0x3e0b10b8	0.13580596
98	0x3d3904cb	0.045170587
99	0xbc961ee6	-0.01832528
100	0xbdc0a1fc	-0.09405896
101	0xbe0f930a	-0.14020935
102	0xbcf3c877	-0.029758675
103	0x3da2b0b8	0.07943863
104	0xbdd93212	-0.10605253
105	0x3c301b66	0.01074872
106	0x3ceb10f8	0.028694615
107	0xbdc5e73e	-0.096632466
108	0xbdede4ae	-0.11615883
109	0xbc9e5ea0	-0.01933223
110	0xbddd60b2	-0.10809459
111	0xbd4825c2	-0.048864134
112	0x3d8c8702	0.06861688
113	0xbd8a96c9	-0.06767041
114	0x3df0d287	0.11758905
115	0xbde87ae3	-0.11351564
116	0xbdef2eb9	-0.116788335
117	0xbe10cf34	-0.14141542
118	0xbbdd42ae	-0.0067523336
119	0xbdbf410c	-0.093385786
120	0x3d5a032b	0.053225677
121	0x3df3f65d	0.119122244
122	0x3cdeda3a	0.027203668
123	0x3dd6cea6	0.10488634
124	0x3d8de182	0.06927778
125	0x3cc1510e	0.02359822
126	0xbdef5925	-0.11686925
127	0x3e036075	0.12829764
128	0x3d1afc98	0.03783855
129	0xbc85bad4	-0.016324438
130	0x3d3995e6	0.04530897
131	0xbc757db0	-0.0149835795
132	0x3e160715	0.14651139
133	0x3dbd61dd	0.092471816
134	0x3dd4e0c9	0.10394437
135	0x3de4b270	0.11166847
136	0xbbf2a927	-0.0074054184
137	0xbdc1e34a	-0.0946718
138	0xbbdf4c33	-0.0068145036
139	0x3c29a3b5	0.010353972
140	0x3e1e8bf6	0.15483078
141	0xbd7f8e96	-0.06239184
142	0x3dbbdb2e	0.091726646
143	0x3d91cd7a	0.0711927
144	0x3d1a6be0	0.037700534
145	0x3c953e46	0.01821817
146	0xbd64565a	-0.055746414
147	0x3e094df6	0.13408646
148	0x3d2d58b7	0.042320933
149	0xbcab0805	-0.020877847
150	0x3e00e4f4	0.12587339
151	0x39cac16a	0.00038672547
152	0x3c6648ec	0.014055472
153	0xbd770a01	-0.060312275
154	0x3d8c4733	0.06849518
155	0xbc67351e	-0.014111785
156	0xbd9bcf09	-0.07607848
157	0x3c206e9e	0.009791998
158	0xbe04510d	-0.12921543
159	0x3be1650f	0.006878502
160	0x3c6e2993	0.014536279
161	0x3d9a53f0	0.07535541
162	0xbd10c4d4	-0.03534396
163	0xbd642d03	-0.05570699
164	0x3d62e255	0.05539163
165	0x3d3a1b3b	0.045436125
166	0xbd3e6738	-0.046485156
167	0xbc937304	-0.01799918
168	0x3d9e014f	0.07715093
169	0xbe244e9d	-0.16045614
170	0x3dec9e42	0.11553623
171	0xbdec0341	-0.11524058
172	0x3d08f045	0.033432264
173	0x3e055c95	0.13023598
174	0xbe1ff4c0	-0.15620708
175	0x3e1ca1ca	0.15296093
176	0xbd8d517e	-0.06900309
177	0x3dfefdc2	0.12450744
178	0xbcf34eea	-0.029700715
179	0x3dde83a0	0.10864949
180	0xbdd121c7	-0.10211521
181	0x3d9bd028	0.07608062
182	0xbd622753	-0.055213284
183	0x3bc6bdbb	0.006065098
184	0x3dc3e698	0.09565467
185	0x3d57ff8d	0.052733947
186	0x3dfccefc	0.12344167
187	0x3d57f864	0.052727118
188	0xbdea636c	-0.114447445
189	0x3b60f2e6	0.0034324466
190	0x3ddd673b	0.10810705
191	0x3c684d08	0.014178522
192	0x3d2bbeaf	0.041929897
193	0xbdc241af	-0.094851844
194	0x3e2e64fd	0.17030711
195	0xbc24f6c8	-0.010068603
196	0x3dc77a98	0.0974018
197	0x3d9d5e59	0.07684011
198	0xbd42ed0b	-0.047589343
199	0x3baf1ced	0.0053440244
200	0x3e15b606	0.14620218
201	0x3caf978f	0.021434573
202	0xbc428f79	-0.011875027
203	0x3e2f6f28	0.17132246
204	0xbe1693fd	-0.1470489
205	0x3bfe91fb	0.007768867
206	0x3d7c8278	0.061647862
207	0xbd7de929	-0.061989937
208	0xbe1f0b59	-0.15531673
209	0xbcefb467	-0.029260827
210	0xbdf2dc5a	-0.11858435
211	0x3cf89f2c	0.030349337
212	0x3d94be69	0.0726288
213	0xbe0d1a96	-0.13779673
214	0xbd6ecc02	-0.058300026
215	0x3d9f57f9	0.07780451
216	0xbd249626	-0.040182255
217	0xbe1ba803	-0.1520081
218	0x3d198dff	0.037488934
219	0x3c4df1ec	0.012569886
220	0x3d9b7779	0.07591147
221	0xbdbb9d5d	-0.09160874
222	0xbd2b2ed3	-0.041792702
223	0x3d588bf7	0.052867856
224	0x3d5db3f8	0.05412671
225	0x3e079251	0.13239409
226	0xbd910d50	-0.07082617
227	0xbd917dc7	-0.07104068
228	0x3dc3f2b4	0.09567776
229	0xbe1fb886	-0.15597734
230	0x3d0de4c6	0.034642003
231	0x3d729ffc	0.059234604
232	0x3e23e807	0.1600648
233	0x3d713d8c	0.058896586
234	0xbe0d156a	-0.137777
235	0xba29e832	-0.0006481438
236	0xbc9c66f0	-0.019092053
237	0x3c0b82dc	0.008515086
238	0x3cd56590	0.026049405
239	0x3d28295c	0.04105507
240	0x3e29d8fa	0.16586676
241	0x3d23162f	0.039816078
242	0xbc798863	-0.015230271
243	0xbca80a04	-0.020512588
244	0xbd83de4f	-0.064388864
245	0xbda1bfa7	-0.07897883
246	0xbc35434e	-0.01106341
247	0xbd551373	-0.0520205
248	0xbccc0e05	-0.024909029
249	0x3d922d5e	0.07137559
250	0x3d847043	0.06466725
251	0xbe04bea5	-0.1296335
252	0x3d40d03b	0.047073584
253	0x3da0342e	0.078224525
254	0x3d623171	0.055222932
255	0xbb5078dd	-0.0031810321

lstm.weight_hh_l1 f4 [200, 50]
0	0xbe29b4e3	-0.16572909
1	0x3dd49017	0.103790455
2	0xbceb2289	-0.028702991
3	0x3cfdec7e	0.030996557
4	0x3cb36056	0.021896522
5	0x3e2ae55b	0.16689055
6	0xbd8e533c	-0.069494694
7	0x3db40758	0.08790463
8	0x3db0264e	0.08601056
9	0xbd8a55ef	-0.06754672
10	0x3df2aa0a	0.118488386
11	0x3bb087b6	0.0053872718
12	0xbcf80a39	-0.030278312
13	0xbd7d94b3	-0.06190939
14	0x3d716e20	0.058942914
15	0x3d0f6d46	0.03501632
16	0xbe04035c	-0.12891906
17	0x3da87d69	0.08227045
18	0xbd95f1a5	-0.07321481
19	0xbd08d6a7	-0.033407833
20	0x3cb14c15	0.021642724
21	0x3d499412	0.049213476
22	0x3da2fe99	0.07958717
23	0x3d5c816e	0.05383437
24	0xbde765da	-0.112987235
25	0xbd999a70	-0.0750016
26	0xbdc2228a	-0.09479244
27	0x3d91ea36	0.0712475
28	0xbda2df6d	-0.07952771
29	0x3c30b6a2	0.010785731
30	0x3dc62be6	0.09676342
31	0xbe12d4f2	-0.14339045
32	0xbd700e12	-0.05860717
33	0x3cbf7339	0.023370372
34	0x3d38c431	0.045108978
35	0xbdab0bb1	-0.08351839
36	0xbc3cb7a1	-0.01151839
37	0xbe2e7a28	-0.17038786
38	0x3be4d8e4	0.006983863
39	0xbcb8d0b7	-0.02256046
40	0x3d141450	0.036152184
41	0x3de2fedf	0.11083769
42	0xbd4bec83	-0.049786102
43	0x3dbed9c9	0.09318883
44	0x3d4c0dbb	0.049817782
45	0x3d967511	0.073465474
46	0xbd9d7796	-0.07688825
47	0x3d1ecc93	0.038769316
48	0x3e282840	0.16421604
49	0x3ce00c03	0.027349478
50	0x3dcd9d13	0.10039725
51	0xbe29cb12	-0.16581371
52	0x3dab4b1a	0.08363934
53	0x3dc7f8b2	0.09764232
54	0x3d4a288c	0.049355075
55	0xbc9ae435	-0.018907646
56	0xbdb3223a	-0.087467626
57	0x3db503d7	0.08838623
58	0x3d7e236f	0.06204551
59	0x3d8be5f8	0.068309724
60	0x3d461877	0.048363175
61	0xbe2caf29	-0.16863693
62	0x3d07def4	0.03317161
63	0xbd8d3359	-0.068945594
64	0x3de024ac	0.109444946
65	0xbdc42612	-0.09577574
66	0x3cfb49ab	0.030674776
67	0xbdb75afc	-0.08952901
68	0x3db07fa5	0.08618096
69	0xbe06d024	-0.13165337
70	0xbc05a57d	-0.008157131
71	0x3c122d9a	0.008922005
72	0xbe2ebbe5	-0.17063864
73	0x3e2efd70	0.17088866
74	0x3d9a31b7	0.075290136
75	0xbdbdede5	-0.092738904
76	0xbd36e6c6	-0.044653676
77	0xbdc90157	-0.09814709
78	0xbcddec4f	-0.02709022
79	0xbdc1a964	-0.09456137
80	0x3d843d96	0.06457059
81	0xbca18f82	-0.01972175
82	0xbdc2388c	-0.09483442
83	0xbc2c8be9	-0.010531404
84	0xbe3c723a	-0.18402949
85	0x3db1a4d3	0.08674016
86	0xbe2fd9fa	-0.17172995
87	0xbda91750	-0.082564
88	0x3de56bf7	0.11202233
89	0xbb92affe	-0.0044765463
90	0x3d21ee82	0.0395341
91	0x3dfe00a8	0.12402469
92	0x3c8fa50f	0.01753476
93	0x3d3c350a	0.04594902
94	0xbda776db	-0.08176967
95	0xbd84755f	-0.06467699
96	0xbdd0fda6	-0.102046296
97	0x3dc4ddc3	0.0961261
98	0x3db12618	0.08649844
99	0x3e2b93d3	0.16755609
100	0x3ca84bdb	0.020543983
101	0xbc208704	-0.009797815
102	0x3d9adeed	0.07562051
103	0x3d2391c5	0.03993394
104	0xbe20a88d	-0.15689297
105	0x3d31e718	0.04343328
106	0xbdce743c	-0.10080764
107	0xbbc51c7b	-0.006015358
108	0xbd14a7e9	-0.036292944
109	0x3d9a6be9	0.075401135
110	0x3c97e526	0.018541884
111	0x38c80613	9.5378746e-05
112	0x3e1ce2b5	0.15320857
113	0xbdbe6041	-0.09295703
114	0xbbbc3e1a	-0.005744708
115	0xbdbb9a6c	-0.09160313
116	0xbd73813b	-0.059449416
117	0xbd4914c1	-0.049092058
118	0xbdada4c1	-0.0847869
119	0x3d6a6dc9	0.057233606
120	0x3d839b8b	0.06426152
121	0xbd898f06	-0.06716733
122	0xbdef3e0f	-0.116817586
123	0xbd8faa50	-0.070149064
124	0x3e146e10	0.1449511
125	0x3cb44205	0.022004137
126	0xbd81e1e4	-0.06341913
127	0x3e13bb41	0.144269
128	0xbdc4ca7d	-0.09608934
129	0x3d5c085e	0.053718917
130	0xbe1eebdb	-0.15519659
131	0x3bb301d4	0.0054628644
132	0x3cdcba33	0.026944255
133	0x3bc8cbd8	0.0061278157
134	0xbe0dfb25	-0.13865335
135	0x3dbf8e8b	0.0935336
136	0xbe05b02a	-0.13055483
137	0xbd8857e3	-0.06657388
138	0xbd390493	-0.045170378
139	0x3db07bab	0.08617338
140	0x3d50a473	0.05093808
141	0x3e217046	0.15765485
142	0x3dd36b07	0.10323148
143	0x3e1342d0	0.14380956
144	0xbd9fddee	-0.078060016
145	0xbe053a80	-0.13010597
146	0xbcb22ef0	-0.021750897
147	0x3e087462	0.13325647
148	0xbdd0448a	-0.10169323
149	0xbd44167a	-0.047872998
150	0x3ccfea4d	0.025380278
151	0x3c01c9d3	0.007921654
152	0xbc7be835	-0.015375187
153	0xb9f8bc39	-0.00047442483
154	0xbe276ba3	-0.16349654
155	0x3d04e2c7	0.032442834
156	0x3d80ed0f	0.06295215
157	0x3e0fedd2	0.14055565
158	0x3d9e7192	0.077365056
159	0x3d848181	0.064700134
160	0xbdaba260	-0.0838058
161	0xbcec94e5	-0.028879592
162	0x3cd91cad	0.026502931
163	0xbe365012	-0.17803982
164	0x3e14b3ab	0.14521663
165	0x3dcc13c5	0.09964708
166	0xbe32a6e1	-0.17446472
167	0x3e133147	0.14374267
168	0xbda98b2a	-0.082784966
169	0x3d8c17dd	0.06840489
170	0xbddd3f4d	-0.10803089
171	0x3ce62773	0.028094983
172	0x3ca75d78	0.020430312
173	0x3de8cd86	0.113673255
174	0xbe225b59	-0.15855159
175	0xbd2ab5ef	-0.04167741
176	0x3c53cdc4	0.012927476
177	0x3da4fd4f	0.08056127
178	0xbd0efb2a	-0.034907497
179	0x3e29ea8c	0.16593379
180	0xbd2d195b	-0.04226051
181	0xbd6ce3d0	-0.057834446
182	0xbe0745d3	-0.1321023
183	0xbda86bda	-0.08223696
184	0xbcac5fea	-0.02104183
185	0xbd924704	-0.071424514
186	0x3d9e6c8c	0.077355474
187	0x3da82d6a	0.08211787
188	0xbd808957	-0.062761955
189	0x3dac198c	0.0840331
190	0xbd879498	-0.06620139
191	0x3ccc154d	0.0249125
192	0xbc838d22	-0.016058508
193	0x3e049c55	0.12950261
194	0xbda7947c	-0.08182618
195	0xbda914c9	-0.082559176
196	0x3e1ec5d1	0.15505148
197	0x3d084f49	0.033278737
198	0xbccc39a8	-0.024929836
199	0xbd57d537	-0.052693572
200	0xbcdd6cd1	-0.027029427
201	0xbd54da05	-0.051965732
202	0xbdbb13be	-0.09134625
203	0x3c65adb1	0.014018462
204	0xbda1d7ec	-0.07902512
205	0xbced8db4	-0.028998233
206	0xbd8e0857	-0.069351844
207	0x3e1738ab	0.14767711
208	0x3b328be7	0.0027244033
209	0xbc437007	-0.011928565
210	0xbdc401db	-0.095706664
211	0xbd4409ec	-0.047861025
212	0xbdbc2b98	-0.09188002
213	0xbe26708c	-0.1625387
214	0xbd72b7d3	-0.05925734
215	0x3dba71d7	0.091037445
216	0xbe0c61f3	-0.1370924
217	0x3e2890c4	0.16461474
218	0xbd90eb3e	-0.07076119
219	0x3dabb9ab	0.08385023
220	0xbe06e0c1	-0.13171674
221	0xbe0a8416	-0.1352695
222	0xbbcf529b	-0.006326986
223	0x3d719802	0.058982857
224	0x3dbf0e1d	0.09328864
225	0xbdd0fe30	-0.102047324
226	0x3de4e29c	0.11176035
227	0x3e32e80f	0.17471336
228	0xbb08c42d	-0.0020868883
229	0x3de97f87	0.11401277
230	0xbdb8a7f6	-0.09016411
231	0x3d69722c	0.05699365
232	0xbd24e326	-0.040255688
233	0x3c8b6bca	0.017019171
234	0x3cd26bd4	0.025686182
235	0x3d083be6	0.03326025
236	0xbdb1f998	-0.08690184
237	0xbd9a4693	-0.07532992
238	0xbd5eace0	-0.054364085
239	0x3db87a1d	0.09007666
240	0x3e1e8761	0.1548133
241	0xbd5b114f	-0.053483304
242	0x3e33a22d	0.17542334
243	0x3c26681f	0.01015666
244	0x3d8a2ac1	0.06746436
245	0x3da681f3	0.081302546
246	0x3dd77826	0.10520963
247	0x3e0c68a6	0.13711795
248	0x3cae5e8d	0.02128532
249	0x3dca4eaa	0.09878285
250	0xbe28ff06	-0.16503534
251	0xbdb0f23d	-0.08639953
252	0xbc17c648	-0.0092635825
253	0xbd8f4fd1	-0.06997646
254	0xbdc105bf	-0.09424924
255	0xbb5855d4	-0.0033010142

lstm.bias_ih_l1 f4 [200]
0	0xbc9832a1	-0.01857883
1	0xbd953fce	-0.072875604
2	0xbca4cf58	-0.0201184
3	0x3d33f22d	0.04393213
4	0x3da62215	0.081119694
5	0x3dbc5a60	0.09196925
6	0x3dc51ede	0.09625028
7	0xbd911297	-0.07083624
8	0x3dfb28f9	0.12263674
9	0xbcdea5de	-0.027178701
10	0x3e23d07f	0.15997504
11	0xbddef19b	-0.10885926
12	0xbd95ce73	-0.07314768
13	0x3dca2f40	0.098722935
14	0xbcf45afa	-0.029828537
15	0xbd8869d2	-0.066608086
16	0xbd7bfa52	-0.06151802
17	0xbd2f6ce2	-0.042828448
18	0x3df9f224	0.12204388
19	0xbce70e21	-0.02820498
20	0xbdb12dbc	-0.08651301
21	0x3d8c8844	0.06861928
22	0xbd27a2ce	-0.040926747
23	0x3d689822	0.05678571
24	0xbd48f616	-0.04906281
25	0x3e06e019	0.13171424
26	0x3e125bdb	0.14292853
27	0xbc816c00	-0.015798569
28	0x3dc5099e	0.09620975
29	0x3e0de0dd	0.1385531
30	0x3d6a961f	0.057272073
31	0xbda54299	-0.08069343
32	0xbd9e722c	-0.0773662
33	0x3e3466ac	0.17617291
34	0x3dafd933	0.08586349
35	0xbdc7d338	-0.09757084
36	0xbdc6f747	-0.09715133
37	0x3b689493	0.0035488948
38	0xbce8de34	-0.028426267
39	0xbdb91937	-0.090380125
40	0x3e072975	0.13199408
41	0xbcf6a68c	-0.030108713
42	0x3d47913a	0.048722483
43	0x3dd2381b	0.102646075
44	0x3e356669	0.17714848
45	0x3e036cd2	0.1283448
46	0x3dc9dabf	0.09856176
47	0xbdc10a6c	-0.09425816
48	0xbd00a782	-0.031409748
49	0xbd79c015	-0.0609742
50	0x3dc93833	0.09825172
51	0xbd56d0e5	-0.05244531
52	0xbd15d7ce	-0.03658276
53	0xbca5fa53	-0.020260965
54	0x3db93b30	0.09044492
55	0x3d4869e3	0.048929106
56	0xbd73061c	-0.059332
57	0x3d2d07cf	0.042243775
58	0x3e0bdd98	0.1365875
59	0x3cd22fdb	0.025657585
60	0x3d0ca7f4	0.03433986
61	0x3da32734	0.07966462
62	0x3dde7151	0.10861457
63	0xbd1f4893	-0.03888757
64	0xbd2586b8	-0.04041168
65	0xbd0c02d9	-0.034182403
66	0xbcd1dc09	-0.025617616
67	0xbc802640	-0.015643239
68	0xbd02a907	-0.03189948
69	0xbd9e96a3	-0.077435754
70	0xbd9fa851	-0.07795776
71	0x3db0e596	0.0863754
72	0x3e0d05e2	0.13771775
73	0xbd9c8e4b	-0.07644328
74	0xbd2fb57a	-0.04289768
75	0xbda674bb	-0.08127733
76	0x3dd85fd0	0.1056515
77	0x3cc315ec	0.023814164
78	0x3d9388a9	0.072038
79	0xbda8bb17	-0.082388096
80	0x3dda7d19	0.10668392
81	0x3d9cafe3	0.07650735
82	0xbd6673d0	-0.05626279
83	0xbd8d8727	-0.06910544
84	0x3d346014	0.04403694
85	0xbc43a8df	-0.0119421175
86	0x3ba46441	0.005016834
87	0xbbe364c8	-0.0069395043
88	0x3d8f7cb7	0.07006209
89	0x3d87497d	0.06605814
90	0x3d4d1855	0.050072033
91	0xbd4bb48b	-0.049732726
92	0xbdad876a	-0.08473094
93	0xbdc46f41	-0.095915325
94	0xbd460201	-0.048341755
95	0x3dbe6168	0.092959225
96	0x3d828d1a	0.06374569
97	0x3e0c5c60	0.13707113
98	0x3ce3e104	0.027817257
99	0x3b83c1bd	0.004020898
100	0xbe2c8892	-0.16848972
101	0x3dabff96	0.083983585
102	0xbd765e03	-0.06014825
103	0x3d73190b	0.059350055
104	0xbe137f75	-0.1440409
105	0x3e27b02d	0.163758
106	0x3c8ca7b6	0.017169815
107	0xbd681ac8	-0.056666166
108	0xbd667fe4	-0.05627431
109	0xbde4a2a0	-0.11163831
110	0x3e059257	0.13044105
111	0x3dbd95f7	0.09257119
112	0xbc6925cd	-0.014230204
113	0xbc9af82e	-0.01891717
114	0xbc91d193	-0.017800128
115	0xbdd12947	-0.10212951
116	0x3cb9d5fd	0.022685045
117	0x3e14d342	0.14533713
118	0xbe00bb46	-0.12571439
119	0xbde004b0	-0.10938394
120	0xbccd61d8	-0.02507107
121	0xbdfe762a	-0.12424882
122	0x3da15c21	0.078789
123	0x3de8feca	0.11376722
124	0xbd0b65d8	-0.034032673
125	0xbd977800	-0.07395935
126	0x3e00179b	0.12509005
127	0x3db04496	0.08606832
128	0x3d864ed2	0.065580025
129	0x3e04ee20	0.12981462
130	0xbd64c1d2	-0.055848904
131	0x3d82804f	0.06372129
132	0x3d9b9c4b	0.0759817
133	0xbd8ea955	-0.06965891
134	0x3d083175	0.03325029
135	0x3da1146b	0.078652225
136	0x3db4b14c	0.08822879
137	0xbd604c2d	-0.054760147
138	0x3d00b9e8	0.031427294
139	0xbc1beb5a	-0.009516561
140	0x3d6befc0	0.05760169
141	0x3e2f4d16	0.1711925
142	0x3d695dd5	0.05697425
143	0x3d6f8025	0.058471818
144	0x3d5120a6	0.051056527
145	0xbafdc7fc	-0.0019361968
146	0x3daef882	0.08543493
147	0x3e003fb5	0.12524302
148	0xbd6fe38b	-0.05856661
149	0x3d278bd3	0.04090483
150	0x3de80dd1	0.1133076
151	0x3c670636	0.014100602
152	0xbd2e60bb	-0.042572718
153	0xbd653234	-0.05595608
154	0x3dab026a	0.0835007
155	0x3d210b48	0.0393174
156	0x3c5715de	0.013127772
157	0x3e28c740	0.16482258
158	0x3d96c098	0.07360953
159	0x3e1566aa	0.14589944
160	0xbb4e051e	-0.0031436156
161	0x3de622e4	0.112371236
162	0x3dd63a8a	0.10460384
163	0xbd8aca0b	-0.06776818
164	0x3e404f00	0.18780136
165	0x3d83936a	0.064246014
166	0x3bad4238	0.005287435
167	0x3cfec280	0.031098604
168	0x3e4d7961	0.20065834
169	0x3e1ea16f	0.1549127
170	0x3defbffb	0.11706539
171	0x3dc49a28	0.095997155
172	0x3e4695da	0.19393101
173	0xbcada2c3	-0.021195775
174	0x3d8982c4	0.06714395
175	0xbbf28bab	-0.0074019036
176	0xbd80c7f7	-0.0628814
177	0x3dcc35a3	0.09971168
178	0x3d9bd9fe	0.07609938
179	0xbd858791	-0.06519998
180	0x3dd80887	0.105485015
181	0xbd221cc9	-0.039578233
182	0xbda0346d	-0.078224994
183	0x3e4f8777	0.2026652
184	0xbaee6b3a	-0.0018189915
185	0x3e0d77d3	0.1381524
186	0x3e2a10c2	0.16607955
187	0x3d7c22f0	0.061556756
188	0xbd27ea42	-0.04099489
189	0x3de28ff8	0.11062616
190	0x3e4dc6c1	0.2009535
191	0xbd80ce98	-0.06289405
192	0x3e35723b	0.17719357
193	0x3e05d3cb	0.13069074
194	0x3da29b83	0.07939818
195	0x3e3d9ac8	0.18516076
196	0xbd5bda2f	-0.053674873
197	0xbd4c8adb	-0.04993711
198	0x3be79096	0.0070667965
199	0x3cdd2f9a	0.027000237

lstm.bias_hh_l1 f4 [200]
0	0x3d882b36	0.06648867
1	0x3d2f8a8e	0.042856745
2	0x3c045ed6	0.008079251
3	0x3e04b413	0.12959318
4	0xbd7186f4	-0.058966592
5	0xbd96861d	-0.07349799
6	0xbda6acea	-0.081384495
7	0xbde1c71c	-0.11024305
8	0xbc3b7236	-0.011440804
9	0xbd2c120d	-0.042009402
10	0x3d9402ff	0.07227134
11	0xbd88b916	-0.06675927
12	0xbda426b9	-0.08015198
13	0x3cac1306	0.021005165
14	0xbca915d7	-0.020640297
15	0x3d7bc11a	0.061463453
16	0x3c997e45	0.018736968
17	0x3dde8def	0.108669154
18	0x3c816ce5	0.015798995
19	0x3be52820	0.0069933087
20	0xbdbb2183	-0.09137251
21	0xbdbe6861	-0.092972524
22	0x3dbab9e6	0.091174886
23	0xbd59345b	-0.053028446
24	0xbdafddc9	-0.08587224
25	0xbc383251	-0.011242465
26	0x3df0f60f	0.11765682
27	0xbda51242	-0.08060123
28	0xbd25fd0b	-0.040524524
29	0x3d904667	0.07044678
30	0xbd71154f	-0.058858212
31	0xbd704f5e	-0.05866944
32	0x3c50a85b	0.012735452
33	0x3d210eb2	0.039320655
34	0xbd68bf66	-0.056823157
35	0x3dcb05cf	0.09913217
36	0xbda1efdf	-0.0790708
37	0xbd405d9d	-0.046964277
38	0x3e2b4c7a	0.16728392
39	0x3d75b4f4	0.059987023
40	0x3dba9cd0	0.09111941
41	0xbbcd8292	-0.0062716687
42	0x3d299886	0.041405223
43	0xbc6e0716	-0.014528057
44	0xbcc4f78f	-0.024043826
45	0xbd7cd420	-0.061725736
46	0x3db2837f	0.08716487
47	0x3b287d58	0.0025709476
48	0xbcab24ef	-0.020891635
49	0x3d8ac130	0.06775129
50	0x3d76e7de	0.06027972
51	0x3dedb0af	0.11605965
52	0x3e157e8a	0.14599052
53	0xba559ab9	-0.00081483606
54	0xbdc2c265	-0.09509734
55	0xbdcd91c9	-0.10037572
56	0x3ded3e40	0.11584139
57	0x3d30872f	0.04309767
58	0x3debceb7	0.11514037
59	0x3ded8642	0.11597873
60	0xbcacb660	-0.021083057
61	0xbdc689db	-0.096942626
62	0xbd929ca1	-0.07158781
63	0xbd8807f1	-0.0664214
64	0x3e2df7ff	0.16989134
65	0x3da28dbd	0.07937191
66	0xbd598890	-0.05310875
67	0x3ced1c0b	0.028944036
68	0x3de1ab7b	0.110190354
69	0x3cedecc5	0.029043565
70	0x3da9f56e	0.08298765
71	0x3d9c9f33	0.07647552
72	0x3d1b7ba9	0.03795973
73	0xbd488085	-0.04895069
74	0xbda92f38	-0.082609594
75	0xbde33542	-0.110941425
76	0x3d83fa90	0.064442754
77	0x3c9aa2d6	0.018876474
78	0x3cdc4f22	0.026893202
79	0xbd72ff8c	-0.05932574
80	0x3dd9dd4d	0.10637913
81	0xbc1bdd88	-0.009513266
82	0xbde5a46e	-0.11213003
83	0xbd6fef14	-0.058577612
84	0xbcc75c30	-0.02433595
85	0xbcd94cf4	-0.026525952
86	0xbde0008c	-0.10937604
87	0xbcb520e5	-0.022110412
88	0x3d19ad17	0.037518587
89	0x3e0fc453	0.14039735
90	0x3b939aae	0.0045045232
91	0xbd85e776	-0.06538288
92	0x3d446955	0.047952015
93	0x3c7deb46	0.015497988
94	0x3e25b69d	0.16182943
95	0xbd625809	-0.055259738
96	0x3e2f2ade	0.17106196
97	0x3e1a1789	0.1504804
98	0x3dcb71bc	0.099338025
99	0xbd80be73	-0.06286325
100	0x3d9bd594	0.07609096
101	0x3de40338	0.111334264
102	0x3d46b931	0.048516456
103	0x3dff731f	0.124731295
104	0xbd5abe2e	-0.053404026
105	0xbd845362	-0.064612165
106	0xbe16cd4a	-0.14726749
107	0x3d1a534c	0.037677094
108	0x3da67fe5	0.08129863
109	0xbd9b5078	-0.075837076
110	0xbbb5785f	-0.005538031
111	0xbdcdfeeb	-0.10058387
112	0x3e1a02ef	0.15040182
113	0xbd838e0f	-0.0642358
114	0x3b941b92	0.004519888
115	0x3c05cb21	0.0081661055
116	0xbe07d439	-0.1326455
117	0xbd7a9f96	-0.06118735
118	0x3db639c5	0.088977374
119	0x3dcbbe54	0.099484116
120	0xbd48aeb9	-0.048994754
121	0xbce681ab	-0.028138002
122	0x3bf5f133	0.00750556
123	0xbdb3c3d2	-0.08777584
124	0xbdfee586	-0.12446122
125	0x3dab4ae4	0.08363894
126	0x3de14f10	0.11001408
127	0xbc1c6f85	-0.009548073
128	0x3db63ddc	0.088985175
129	0xbcec4c5c	-0.028845005
130	0xbd2b3666	-0.041799925
131	0x3d9dd7c7	0.07707172
132	0xbd955b50	-0.07292807
133	0x3c2625fc	0.010140892
134	0x3d544dcd	0.05183201
135	0x3e1c6a1a	0.1527485
136	0x3c13cfd3	0.009021717
137	0xbd97ab27	-0.074056916
138	0xbdd9492d	-0.1060966
139	0xbdf34037	-0.118774824
140	0x3c5bc512	0.013413684
141	0xbce3a8e9	-0.027790504
142	0x3e15add4	0.14617091
143	0xbd8faf68	-0.07015878
144	0x3e0a9f6a	0.13537374
145	0x3cf8d563	0.030375188
146	0x3c873e78	0.01650928
147	0x3d6f1888	0.058373004
148	0x3dfc7450	0.12326872
149	0xbda83886	-0.08213906
150	0xbc41d629	-0.011830845
151	0x3da1edf7	0.07906716
152	0x3e2452e1	0.16047241
153	0x3e5d44fd	0.21608348
154	0xbd28e364	-0.04123248
155	0xbd334f8c	-0.043777034
156	0x3a93528a	0.0011239809
157	0x3e23c397	0.1599258
158	0x3dbc21ec	0.091861576
159	0xbd610dee	-0.054944925
160	0x3da2dbab	0.079520546
161	0xbd98851a	-0.07447262
162	0x3d8acd7a	0.06777473
163	0x3e221333	0.15827636
164	0xbd9bb76c	-0.07603344
165	0xbd815d34	-0.06316605
166	0x3e2d6edf	0.16936825
167	0xbc2bd670	-0.010488138
168	0x3de759c6	0.1129642
169	0x3c1285cc	0.0089430325
170	0x3e321eda	0.17394581
171	0x3e2fd0c7	0.17169486
172	0x3d199f95	0.037505705
173	0xbd84d48e	-0.06485854
174	0xbc43bedd	-0.011947361
175	0x3dc3edd9	0.0956685
176	0x3e2d0835	0.16897662
177	0xbc6f5bd2	-0.014609294
178	0x3cb31639	0.021861183
179	0x3da5384a	0.08067377
180	0x3d23ec5c	0.04002033
181	0x3e32f0f8	0.17474735
182	0x3cc5b9d5	0.024136463
183	0x3e326807	0.17422496
184	0x3e3f3cd3	0.18675546
185	0xbcb8558e	-0.022501733
186	0x3cfbb1a5	0.030724356
187	0x3dfb5ffc	0.12274167
188	0x3e471656	0.19442114
189	0x3df72bfc	0.12068936
190	0x3d39b443	0.045337927
191	0x3d33d704	0.043906227
192	0x3db9171a	0.090376094
193	0x3da92ea8	0.08260852
194	0x3e3b204b	0.18274038
195	0x3d80d9b5	0.06291524
196	0xbd8f3881	-0.06993199
197	0x3e0e6dc4	0.1390906
198	0x3d748b31	0.059703056
199	0xbc99985a	-0.018749405

fc.weight f4 [1, 50]
0	0xbf23f397	-0.64043564
1	0xbf319642	-0.693699
2	0x3f3e1a5f	0.7425899
3	0x3f2fafb2	0.68627465
4	0xbf2e1e81	-0.68015295
5	0x3f3a5973	0.7279274
6	0xbf2a42fc	-0.6650846
7	0x3f388250	0.7207384
8	0x3f3e1826	0.742556
9	0x3f265934	0.64979863
10	0x3f32d975	0.69863063
11	0xbf3f5819	-0.747438
12	0x3f2c5e36	0.67331254
13	0xbf44f62d	-0.76938134
14	0x3f40dddf	0.7533855
15	0xbf32b5c0	-0.6980858
16	0xbf475780	-0.7786789
17	0x3f355bdd	0.708433
18	0x3f3153a5	0.69268256
19	0xbf33bd35	-0.7021058
20	0xbf3ec790	-0.7452326
21	0xbf21117b	-0.629173
22	0xbf333c20	-0.7001362
23	0x3f3e293d	0.74281675
24	0x3f288942	0.6583444
25	0xbf347f34	-0.70506597
26	0x3f45f829	0.7733179
27	0x3f1feeb9	0.62473637
28	0xbf3db085	-0.7409747
29	0x3f41bf3c	0.75682425
30	0xbf416ef0	-0.755599
31	0xbf3d28cb	-0.7389037
32	0xbf3011ad	-0.6877697
33	0xbf33edb1	-0.70284563
34	0xbf2e09d5	-0.6798375
35	0x3f2ddf54	0.67918897
36	0xbf38de3a	-0.7221409
37	0xbf365725	-0.7122672
38	0xbf430018	-0.7617202
39	0xbf289b2d	-0.6586178
40	0x3f310483	0.6914751
41	0x3f37ff52	0.7187396
42	0x3f30871e	0.6895617
43	0x3f2ba863	0.6705381
44	0x3f2774d6	0.6541265
45	0xbf43bee3	-0.76463145
46	0x3f1fb999	0.62392575
47	0x3f20503d	0.62622434
48	0x3f2a36cc	0.66489863
49	0x3f3aa9c2	0.7291528
